name: "GoogleNet-Inception-3b"
layer {
  name: "data"
  type: "Data"
  top: "data"
  top: "label"
  include {
    phase: TRAIN
  }
  transform_param {
    mirror: false
    mean_file:"/ssd/zhangdanfeng/char_data/train_bank_card_chars/train1121_107+web_origin/mean.binaryproto"
}
  data_param {
    source: "/ssd/zhangdanfeng/char_data/train_bank_card_chars/train1121_107+web_origin/img_train_lmdb"
    batch_size: 128
    backend: LMDB
  }
}
layer {
  name: "data"
  type: "Data"
  top: "data"
  top: "label"
  include {
    phase: TEST
  }
  transform_param {
    mirror: false
    mean_file:"/ssd/zhangdanfeng/char_data/test_real_bankcard/mean.binaryproto"
}
  data_param {
    source: "/ssd/zhangdanfeng/char_data/test_real_bankcard/img_test_lmdb"
    batch_size: 100
    backend: LMDB
  }
}
layer {
  name: "conv1/7x7_s2"
  type: "Convolution"
  bottom: "data"
  top: "conv1/7x7_s2"
  param {
    lr_mult: 1
    decay_mult: 1
  }
  param {
    lr_mult: 2
    decay_mult: 0
  }
  convolution_param {
    num_output: 64
    kernel_size: 7
    stride: 2
	  pad: 1
    weight_filler {
      type: "xavier"
    }
    bias_filler {
      type: "constant"
      value: 0.2
    }
  }
}
layer {
  name: "conv1/7x7_s2_bn"
  type: "BN"
  bottom: "conv1/7x7_s2"
  top: "conv1/7x7_s2_bn"
  bn_param {
   scale_filler {
   type: "constant"
   value: 1
   }
   shift_filler {
   type: "constant"
   value: 0.001
     }
   }
   param {
   lr_mult: 1.00001
   decay_mult: 0
   }
   param {
   lr_mult: 1.00001
   decay_mult: 0
     }
   }

layer {
  name: "conv1/relu_7x7"
  type: "ReLU"
  bottom: "conv1/7x7_s2_bn"
  top: "conv1/relu_7x7"
}
layer {
  name: "pool1/3x3_s2"
  type: "Pooling"
  bottom: "conv1/relu_7x7"
  top: "pool1/3x3_s2"
  pooling_param {
    pool: MAX
    kernel_size: 3
    stride: 2
  }
}

layer {
  name: "conv2/3x3_reduce"
  type: "Convolution"
  bottom: "pool1/3x3_s2"
  top: "conv2/3x3_reduce"
  param {
    lr_mult: 1
    decay_mult: 1
  }
  param {
    lr_mult: 2
    decay_mult: 0
  }
  convolution_param {
    num_output: 64
    kernel_size: 1
    weight_filler {
      type: "xavier"
    }
    bias_filler {
      type: "constant"
      value: 0.2
    }
  }
}


layer {
  name: "conv2/3x3_reduce_bn"
  type: "BN"
  bottom: "conv2/3x3_reduce"
  top: "conv2/3x3_reduce_bn"
  bn_param {
   scale_filler {
   type: "constant"
   value: 1
   }
   shift_filler {
   type: "constant"
   value: 0.001
     }
   }
   param {
   lr_mult: 1.00001
   decay_mult: 0
   }
   param {
   lr_mult: 1.00001
   decay_mult: 0
     }
   }

layer {
  name: "conv2/relu_3x3_reduce"
  type: "ReLU"
  bottom: "conv2/3x3_reduce_bn"
  top: "conv2/relu_3x3_reduce"
}
layer {
  name: "conv2/3x3"
  type: "Convolution"
  bottom: "conv2/relu_3x3_reduce"
  top: "conv2/3x3"
  param {
    lr_mult: 1
    decay_mult: 1
  }
  param {
    lr_mult: 2
    decay_mult: 0
  }
  convolution_param {
    num_output: 192
    pad: 1
    kernel_size: 3
    weight_filler {
      type: "xavier"
    }
    bias_filler {
      type: "constant"
      value: 0.2
    }
  }
}

layer {
  name: "conv2/3x3_bn"
  type: "BN"
  bottom: "conv2/3x3"
  top: "conv2/3x3_bn"
  bn_param {
   scale_filler {
   type: "constant"
   value: 1
   }
   shift_filler {
   type: "constant"
   value: 0.001
     }
   }
   param {
   lr_mult: 1.00001
   decay_mult: 0
   }
   param {
   lr_mult: 1.00001
   decay_mult: 0
     }
   }

layer {
  name: "conv2/relu_3x3"
  type: "ReLU"
  bottom: "conv2/3x3_bn"
  top: "conv2/relu_3x3"
}
layer {
  name: "pool2/3x3_s2"
  type: "Pooling"
  bottom: "conv2/relu_3x3"
  top: "pool2/3x3_s2"
  pooling_param {
    pool: MAX
    kernel_size: 3
    stride: 2
  }
}
layer {
  name: "inception_3a/3x3_reduce"
  type: "Convolution"
  bottom: "pool2/3x3_s2"
  top: "inception_3a/3x3_reduce"
  param {
    lr_mult: 1
    decay_mult: 1
  }
  param {
    lr_mult: 2
    decay_mult: 0
  }
  convolution_param {
    num_output: 96
    kernel_size: 1
    weight_filler {
      type: "xavier"
    }
    bias_filler {
      type: "constant"
      value: 0.2
    }
  }
}

layer {
  name: "inception_3a/3x3_reduce_bn"
  type: "BN"
  bottom: "inception_3a/3x3_reduce"
  top: "inception_3a/3x3_reduce_bn"
  bn_param {
   scale_filler {
   type: "constant"
   value: 1
   }
   shift_filler {
   type: "constant"
   value: 0.001
     }
   }
   param {
   lr_mult: 1.00001
   decay_mult: 0
   }
   param {
   lr_mult: 1.00001
   decay_mult: 0
     }
   }

layer {
  name: "inception_3a/relu_3x3_reduce"
  type: "ReLU"
  bottom: "inception_3a/3x3_reduce_bn"
  top: "inception_3a/relu_3x3_reduce"
}
layer {
  name: "inception_3a/3x3"
  type: "Convolution"
  bottom: "inception_3a/relu_3x3_reduce"
  top: "inception_3a/3x3"
  param {
    lr_mult: 1
    decay_mult: 1
  }
  param {
    lr_mult: 2
    decay_mult: 0
  }
  convolution_param {
    num_output: 128
    pad: 1
    kernel_size: 3
    weight_filler {
      type: "xavier"
    }
    bias_filler {
      type: "constant"
      value: 0.2
    }
  }
}

layer {
  name: "inception_3a/3x3_bn"
  type: "BN"
  bottom: "inception_3a/3x3"
  top: "inception_3a/3x3_bn"
  bn_param {
   scale_filler {
   type: "constant"
   value: 1
   }
   shift_filler {
   type: "constant"
   value: 0.001
     }
   }
   param {
   lr_mult: 1.00001
   decay_mult: 0
   }
   param {
   lr_mult: 1.00001
   decay_mult: 0
     }
   }

layer {
  name: "inception_3a/relu_3x3"
  type: "ReLU"
  bottom: "inception_3a/3x3_bn"
  top: "inception_3a/relu_3x3"
}
layer {
  name: "inception_3a/5x5_reduce"
  type: "Convolution"
  bottom: "pool2/3x3_s2"
  top: "inception_3a/5x5_reduce"
  param {
    lr_mult: 1
    decay_mult: 1
  }
  param {
    lr_mult: 2
    decay_mult: 0
  }
  convolution_param {
    num_output: 16
    kernel_size: 1
    weight_filler {
      type: "xavier"
    }
    bias_filler {
      type: "constant"
      value: 0.2
    }
  }
}


layer {
  name: "inception_3a/5x5_reduce_bn"
  type: "BN"
  bottom: "inception_3a/5x5_reduce"
  top: "inception_3a/5x5_reduce_bn"
  bn_param {
   scale_filler {
   type: "constant"
   value: 1
   }
   shift_filler {
   type: "constant"
   value: 0.001
     }
   }
   param {
   lr_mult: 1.00001
   decay_mult: 0
   }
   param {
   lr_mult: 1.00001
   decay_mult: 0
     }
   }

layer {
  name: "inception_3a/relu_5x5_reduce"
  type: "ReLU"
  bottom: "inception_3a/5x5_reduce_bn"
  top: "inception_3a/relu_5x5_reduce"
}
layer {
  name: "inception_3a/5x5_1"
  type: "Convolution"
  bottom: "inception_3a/relu_5x5_reduce"
  top: "inception_3a/5x5_1"
  param {
    lr_mult: 1
    decay_mult: 1
  }
  param {
    lr_mult: 2
    decay_mult: 0
  }
  convolution_param {
    num_output: 32
    pad: 1
    kernel_size: 3
    weight_filler {
      type: "xavier"
    }
    bias_filler {
      type: "constant"
      value: 0.2
    }
  }
}

layer {
  name: "inception_3a/5x5_1_bn"
  type: "BN"
  bottom: "inception_3a/5x5_1"
  top: "inception_3a/5x5_1_bn"
  bn_param {
   scale_filler {
   type: "constant"
   value: 1
   }
   shift_filler {
   type: "constant"
   value: 0.001
     }
   }
   param {
   lr_mult: 1.00001
   decay_mult: 0
   }
   param {
   lr_mult: 1.00001
   decay_mult: 0
     }
   }

layer {
  name: "inception_3a/relu_5x5_1"
  type: "ReLU"
  bottom: "inception_3a/5x5_1_bn"
  top: "inception_3a/relu_5x5_1"
}


layer {
  name: "inception_3a/5x5"
  type: "Convolution"
  bottom: "inception_3a/relu_5x5_1"
  top: "inception_3a/5x5"
  param {
    lr_mult: 1
    decay_mult: 1
  }
  param {
    lr_mult: 2
    decay_mult: 0
  }
  convolution_param {
    num_output: 32
    pad: 1
    kernel_size: 3
    weight_filler {
      type: "xavier"
    }
    bias_filler {
      type: "constant"
      value: 0.2
    }
  }
}

layer {
  name: "inception_3a/5x5_bn"
  type: "BN"
  bottom: "inception_3a/5x5"
  top: "inception_3a/5x5_bn"
  bn_param {
   scale_filler {
   type: "constant"
   value: 1
   }
   shift_filler {
   type: "constant"
   value: 0.001
     }
   }
   param {
   lr_mult: 1.00001
   decay_mult: 0
   }
   param {
   lr_mult: 1.00001
   decay_mult: 0
     }
   }

layer {
  name: "inception_3a/relu_5x5"
  type: "ReLU"
  bottom: "inception_3a/5x5_bn"
  top: "inception_3a/relu_5x5"
}


layer {
  name: "inception_3a/pool"
  type: "Pooling"
  bottom: "pool2/3x3_s2"
  top: "inception_3a/pool"
  pooling_param {
    pool: MAX
    kernel_size: 3
    stride: 1
    pad: 1
  }
}
layer {
  name: "inception_3a/pool_proj"
  type: "Convolution"
  bottom: "inception_3a/pool"
  top: "inception_3a/pool_proj"
  param {
    lr_mult: 1
    decay_mult: 1
  }
  param {
    lr_mult: 2
    decay_mult: 0
  }
  convolution_param {
    num_output: 32
    kernel_size: 1
    weight_filler {
      type: "xavier"
    }
    bias_filler {
      type: "constant"
      value: 0.2
    }
  }
}

layer {
  name: "inception_3a/pool_proj_bn"
  type: "BN"
  bottom: "inception_3a/pool_proj"
  top: "inception_3a/pool_proj_bn"
  bn_param {
   scale_filler {
   type: "constant"
   value: 1
   }
   shift_filler {
   type: "constant"
   value: 0.001
     }
   }
   param {
   lr_mult: 1.00001
   decay_mult: 0
   }
   param {
   lr_mult: 1.00001
   decay_mult: 0
     }
   }

layer {
  name: "inception_3a/relu_pool_proj"
  type: "ReLU"
  bottom: "inception_3a/pool_proj_bn"
  top: "inception_3a/relu_pool_proj"
}
layer {
  name: "inception_3a/output"
  type: "Concat"
  bottom: "inception_3a/relu_3x3"
  bottom: "inception_3a/relu_5x5"
  bottom: "inception_3a/relu_pool_proj"
  top: "inception_3a/output"
}
layer {
  name: "inception_3b/3x3_reduce"
  type: "Convolution"
  bottom: "inception_3a/output"
  top: "inception_3b/3x3_reduce"
  param {
    lr_mult: 1
    decay_mult: 1
  }
  param {
    lr_mult: 2
    decay_mult: 0
  }
  convolution_param {
    num_output: 128
    kernel_size: 1
    weight_filler {
      type: "xavier"
    }
    bias_filler {
      type: "constant"
      value: 0.2
    }
  }
}

layer {
  name: "inception_3b/3x3_reduce_bn"
  type: "BN"
  bottom: "inception_3b/3x3_reduce"
  top: "inception_3b/3x3_reduce_bn"
  bn_param {
   scale_filler {
   type: "constant"
   value: 1
   }
   shift_filler {
   type: "constant"
   value: 0.001
     }
   }
   param {
   lr_mult: 1.00001
   decay_mult: 0
   }
   param {
   lr_mult: 1.00001
   decay_mult: 0
     }
   }

layer {
  name: "inception_3b/relu_3x3_reduce"
  type: "ReLU"
  bottom: "inception_3b/3x3_reduce_bn"
  top: "inception_3b/relu_3x3_reduce"
}
layer {
  name: "inception_3b/3x3"
  type: "Convolution"
  bottom: "inception_3b/relu_3x3_reduce"
  top: "inception_3b/3x3"
  param {
    lr_mult: 1
    decay_mult: 1
  }
  param {
    lr_mult: 2
    decay_mult: 0
  }
  convolution_param {
    num_output: 192
    kernel_size: 3
    pad: 1
    stride: 1
    weight_filler {
      type: "xavier"
    }
    bias_filler {
      type: "constant"
      value: 0.2
    }
  }
}

layer {
  name: "inception_3b/3x3_bn"
  type: "BN"
  bottom: "inception_3b/3x3"
  top: "inception_3b/3x3_bn"
  bn_param {
   scale_filler {
   type: "constant"
   value: 1
   }
   shift_filler {
   type: "constant"
   value: 0.001
     }
   }
   param {
   lr_mult: 1.00001
   decay_mult: 0
   }
   param {
   lr_mult: 1.00001
   decay_mult: 0
     }
   }


layer {
  name: "inception_3b/relu_3x3"
  type: "ReLU"
  bottom: "inception_3b/3x3_bn"
  top: "inception_3b/relu_3x3"
}
layer {
  name: "inception_3b/5x5_reduce"
  type: "Convolution"
  bottom: "inception_3a/output"
  top: "inception_3b/5x5_reduce"
  param {
    lr_mult: 1
    decay_mult: 1
  }
  param {
    lr_mult: 2
    decay_mult: 0
  }
  convolution_param {
    num_output: 32
    kernel_size: 1
    weight_filler {
      type: "xavier"
    }
    bias_filler {
      type: "constant"
      value: 0.2
    }
  }
}

layer {
  name: "inception_3b/5x5_reduce_bn"
  type: "BN"
  bottom: "inception_3b/5x5_reduce"
  top: "inception_3b/5x5_reduce_bn"
  bn_param {
   scale_filler {
   type: "constant"
   value: 1
   }
   shift_filler {
   type: "constant"
   value: 0.001
     }
   }
   param {
   lr_mult: 1.00001
   decay_mult: 0
   }
   param {
   lr_mult: 1.00001
   decay_mult: 0
     }
   }


layer {
  name: "inception_3b/relu_5x5_reduce"
  type: "ReLU"
  bottom: "inception_3b/5x5_reduce_bn"
  top: "inception_3b/relu_5x5_reduce"
}
layer {
  name: "inception_3b/5x5_1"
  type: "Convolution"
  bottom: "inception_3b/relu_5x5_reduce"
  top: "inception_3b/5x5_1"
  param {
    lr_mult: 1
    decay_mult: 1
  }
  param {
    lr_mult: 2
    decay_mult: 0
  }
  convolution_param {
    num_output: 96
    kernel_size: 3
    pad: 1
    weight_filler {
      type: "xavier"
    }
    bias_filler {
      type: "constant"
      value: 0.2
    }
  }
}

layer {
  name: "inception_3b/5x5_1_bn"
  type: "BN"
  bottom: "inception_3b/5x5_1"
  top: "inception_3b/5x5_1_bn"
  bn_param {
   scale_filler {
   type: "constant"
   value: 1
   }
   shift_filler {
   type: "constant"
   value: 0.001
     }
   }
   param {
   lr_mult: 1.00001
   decay_mult: 0
   }
   param {
   lr_mult: 1.00001
   decay_mult: 0
     }
   }


layer {
  name: "inception_3b/relu_5x5_1"
  type: "ReLU"
  bottom: "inception_3b/5x5_1_bn"
  top: "inception_3b/relu_5x5_1"
}

layer {
  name: "inception_3b/5x5"
  type: "Convolution"
  bottom: "inception_3b/relu_5x5_1"
  top: "inception_3b/5x5"
  param {
    lr_mult: 1
    decay_mult: 1
  }
  param {
    lr_mult: 2
    decay_mult: 0
  }
  convolution_param {
    num_output: 96
    kernel_size: 3
    pad: 1
    stride: 1
    weight_filler {
      type: "xavier"
    }
    bias_filler {
      type: "constant"
      value: 0.2
    }
  }
}

layer {
  name: "inception_3b/5x5_bn"
  type: "BN"
  bottom: "inception_3b/5x5"
  top: "inception_3b/5x5_bn"
  bn_param {
   scale_filler {
   type: "constant"
   value: 1
   }
   shift_filler {
   type: "constant"
   value: 0.001
     }
   }
   param {
   lr_mult: 1.00001
   decay_mult: 0
   }
   param {
   lr_mult: 1.00001
   decay_mult: 0
     }
   }


layer {
  name: "inception_3b/relu_5x5"
  type: "ReLU"
  bottom: "inception_3b/5x5_bn"
  top: "inception_3b/relu_5x5"
}


layer {
  name: "inception_3b/pool"
  type: "Pooling"
  bottom: "inception_3a/output"
  top: "inception_3b/pool"
  pooling_param {
    pool: MAX
    kernel_size: 3
    stride: 1
    pad: 1
  }
}

layer {
  name: "inception_3b/pool_bn"
  type: "BN"
  bottom: "inception_3b/pool"
  top: "inception_3b/pool_bn"
  bn_param {
   scale_filler {
   type: "constant"
   value: 1
   }
   shift_filler {
   type: "constant"
   value: 0.001
     }
   }
   param {
   lr_mult: 1.00001
   decay_mult: 0
   }
   param {
   lr_mult: 1.00001
   decay_mult: 0
     }
   }

layer {
  name: "inception_3b/pool_relu_5x5"
  type: "ReLU"
  bottom: "inception_3b/pool_bn"
  top: "inception_3b/pool_relu_5x5"
}
layer {
  name: "inception_3b/output"
  type: "Concat"
  bottom: "inception_3b/relu_3x3"
  bottom: "inception_3b/relu_5x5"
  bottom: "inception_3b/pool_relu_5x5"
  top: "inception_3b/output"
}

# loss of inception_3b/output for debug
layer {
  name: "loss_3b/ave_pool"
  type: "Pooling"
  bottom: "inception_3b/output"
  top: "loss_3b/ave_pool"
  pooling_param {
    pool: AVE
    kernel_size: 5
    stride: 3
  }
}

layer {
  name: "loss_3b/conv"
  type: "Convolution"
  bottom: "loss_3b/ave_pool"
  top: "loss_3b/conv"
  param {
    lr_mult: 1
    decay_mult: 1
  }
  param {
    lr_mult: 2
    decay_mult: 0
  }
  convolution_param {
    num_output: 128
    kernel_size: 1
    weight_filler {
      type: "xavier"
    }
    bias_filler {
      type: "constant"
      value: 0.2
    }
  }
}

layer {
  name: "loss_3b/conv_bn"
  type: "BN"
  bottom: "loss_3b/conv"
  top: "loss_3b/conv_bn"
  bn_param {
   scale_filler {
   type: "constant"
   value: 1
   }
   shift_filler {
   type: "constant"
   value: 0.001
     }
   }
   param {
   lr_mult: 1.00001
   decay_mult: 0
   }
   param {
   lr_mult: 1.00001
   decay_mult: 0
     }
   }

layer {
  name: "loss_3b/relu_conv"
  type: "ReLU"
  bottom: "loss_3b/conv_bn"
  top: "loss_3b/relu_conv"
}
layer {
  name: "loss_3b/fc"
  type: "InnerProduct"
  bottom: "loss_3b/relu_conv"
  top: "loss_3b/fc"
  param {
    lr_mult: 1
    decay_mult: 1
  }
  param {
    lr_mult: 2
    decay_mult: 0
  }
  inner_product_param {
    num_output: 1024
    weight_filler {
      type: "xavier"
    }
    bias_filler {
      type: "constant"
      value: 0.2
    }
  }
}

layer {
  name: "loss_3b/fc_bn"
  type: "BN"
  bottom: "loss_3b/fc"
  top: "loss_3b/fc_bn"
  bn_param {
   scale_filler {
   type: "constant"
   value: 1
   }
   shift_filler {
   type: "constant"
   value: 0.001
     }
   }
   param {
   lr_mult: 1.00001
   decay_mult: 0
   }
   param {
   lr_mult: 1.00001
   decay_mult: 0
     }
   }


layer {
  name: "loss_3b/relu_fc"
  type: "ReLU"
  bottom: "loss_3b/fc_bn"
  top: "loss_3b/relu_fc"
}



layer {
  name: "loss_3b/drop_fc"
  type: "Dropout"
  bottom: "loss_3b/relu_fc"
  top: "loss_3b/relu_fc"
  dropout_param {
    dropout_ratio: 0.7
  }
}
layer {
  name: "loss_3b/classifier"
  type: "InnerProduct"
  bottom: "loss_3b/relu_fc"
  top: "loss_3b/classifier"
  param {
    lr_mult: 1
    decay_mult: 1
  }
  param {
    lr_mult: 2
    decay_mult: 0
  }
  inner_product_param {
    num_output: 10
    weight_filler {
      type: "xavier"
    }
    bias_filler {
      type: "constant"
      value: 0
    }
  }
}
layer {
  name: "loss1_3b"
  type: "SoftmaxWithLoss"
  bottom: "loss_3b/classifier"
  bottom: "label"
  top: "loss"
}
layer {
  name: "accuracy"
  type: "Accuracy"
  bottom: "loss_3b/classifier"
  bottom: "label"
  top: "accuracy"
  include {
    phase: TEST
  }
}
